…
class_1 = Dense(4608, activation = 'relu')(flat)
drop_out = Dropout(0.2)(class_1)
class_2 = Dense(1152, activation = 'relu')(drop_out)
output = Dense(2, activation = 'softmax')(class_2)

model_01 = Model(base_model.input, output)
model_01.summary()
Model: "model_2"
_________________________________________________________________
 Layer (type)                Output Shape              Param #   
=================================================================
 input_4 (InputLayer)        [(None, 240, 240, 3)]     0         
                                                                 
 block1_conv1 (Conv2D)       (None, 240, 240, 64)      1792      
                                                                 
 block1_conv2 (Conv2D)       (None, 240, 240, 64)      36928     
                                                                 
 block1_pool (MaxPooling2D)  (None, 120, 120, 64)      0         
                                                                 
 block2_conv1 (Conv2D)       (None, 120, 120, 128)     73856     
                                                                 
 block2_conv2 (Conv2D)       (None, 120, 120, 128)     147584    
                                                                 
 block2_pool (MaxPooling2D)  (None, 60, 60, 128)       0         
                                                                 
 block3_conv1 (Conv2D)       (None, 60, 60, 256)       295168    
                                                                 
 block3_conv2 (Conv2D)       (None, 60, 60, 256)       590080    
                                                                 
 block3_conv3 (Conv2D)       (None, 60, 60, 256)       590080    
                                                                 
 block3_conv4 (Conv2D)       (None, 60, 60, 256)       590080    
                                                                 
 block3_pool (MaxPooling2D)  (None, 30, 30, 256)       0         
                                                                 
 block4_conv1 (Conv2D)       (None, 30, 30, 512)       1180160   
                                                                 
 block4_conv2 (Conv2D)       (None, 30, 30, 512)       2359808   
                                                                 
 block4_conv3 (Conv2D)       (None, 30, 30, 512)       2359808   
                                                                 
 block4_conv4 (Conv2D)       (None, 30, 30, 512)       2359808   
                                                                 
 block4_pool (MaxPooling2D)  (None, 15, 15, 512)       0         
                                                                 
 block5_conv1 (Conv2D)       (None, 15, 15, 512)       2359808   
                                                                 
 block5_conv2 (Conv2D)       (None, 15, 15, 512)       2359808   
                                                                 
 block5_conv3 (Conv2D)       (None, 15, 15, 512)       2359808   
                                                                 
 block5_conv4 (Conv2D)       (None, 15, 15, 512)       2359808   
                                                                 
 block5_pool (MaxPooling2D)  (None, 7, 7, 512)         0         
                                                                 
 flatten_2 (Flatten)         (None, 25088)             0         
                                                                 
 dense_6 (Dense)             (None, 4608)              115610112 
                                                                 
 dropout_2 (Dropout)         (None, 4608)              0         
                                                                 
 dense_7 (Dense)             (None, 1152)              5309568   
                                                                 
 dense_8 (Dense)             (None, 2)                 2306      
                                                                 
=================================================================
Total params: 140,946,370
Trainable params: 120,921,986
Non-trainable params: 20,024,384
_________________________________________________________________
# callback
filepath = 'model.h5'
es = EarlyStopping(monitor='val_loss', verbose = 1, mode='min',patience=4)
…
